best_model.pth (torch, 82999 bytes, 8 tensors)

network.0.weight f4 [64, 1]
0.46242398 -0.48638794 -0.47667736 -0.292268 0.5108738 0.6651194 0.3900689 -0.09096825
-0.4703757 -0.68863225 1.0661006 -0.95362306 0.78723717 0.74416894 0.5154275 0.74724853
-0.6835094 0.7160783 0.019528985 -0.84267724 -0.9485834 0.51973695 0.10789755 -0.15924072
-0.3281406 -0.7060292 -0.039681315 0.45179754 -0.78168535 -0.89772123 -0.6701252 0.8413001
-0.10724897 0.21097761 0.19696636 0.55257225 0.66964155 0.8955697 -0.8641227 0.90628344
-1.0446261 -0.010487556 -0.19587341 0.45571446 0.8573314 -0.40754122 -0.9275915 0.45938995
0.025734782 -0.88515216 -0.42288205 0.18685782 0.44161564 0.82374126 -0.49881953 -0.70810205
-0.97719795 -0.45562932 -0.23917446 0.4600367 0.07190998 -1.0083423 -0.23485146 0.5929287
00000000: d6c2 ec3e d707 f9be 0e0f f4be 27a4 95be
00000010: a0c8 023f 4445 2a3f 1cb7 c73e 904d babd
00000020: 15d5 f0be 344a 30bf fc75 883f a420 74bf
00000030: 6088 493f db81 3e3f 0ef3 033f ae4b 3f3f
00000040: 79fa 2ebf e850 373f 40fb 9f3c b2b9 57bf
00000050: 5dd6 72bf 7b0d 053f 64f9 dc3d 0010 23be
00000060: 0b02 a8be 54be 34bf e088 22bd 0252 e73e
00000070: 881c 48bf 0fd1 65bf 538d 2bbf 715f 573f
00000080: 59a5 dbbd 840a 583e 8db1 493e 6075 0d3f
00000090: a16d 2b3f 0e44 653f 2537 5dbf 3102 683f
000000a0: 4fb6 85bf 00d4 2bbc 0a93 48be 6853 e93e
000000b0: 127a 5b3f 3ea9 d0be a376 6dbf 2935 eb3e
000000c0: c0d1 d23c 5599 62bf ff83 d8be a857 3f3e
000000d0: 721b e23e b5e0 523f 4665 ffbe 2d46 35bf
000000e0: a529 7abf 3f48 e9be 26ea 74be ee89 eb3e
000000f0: 8a45 933d 5c11 81bf e77c 70be 2dca 173f

network.0.bias f4 [64]
1.0235045 0.8410035 0.61833286 0.48677123 0.6058818 -0.32596508 -0.99540067 -0.91172516
0.38984632 0.96518797 0.63777405 0.3085627 -0.89830345 0.7610258 0.999444 0.35898867
-0.35206714 -0.530109 -0.7699747 -0.30892003 0.36721128 -0.26716515 1.006046 -0.78864336
0.6680181 -0.61434317 -0.98056185 -0.14145142 0.71720284 1.0167521 -0.5937767 0.7877588
0.2385355 0.30778754 0.82523453 0.49549255 0.97885185 0.7823744 0.086761266 0.66653425
-0.7331842 -0.048916936 0.22045131 -0.17470643 0.5065732 -0.3571885 1.0404465 0.39624622
-0.5992787 0.4766754 0.13173646 -0.9587897 -0.27250335 0.95590895 0.879454 -0.7268696
0.54009265 0.55676806 -0.03433022 -0.055015072 0.47816372 -0.80818045 0.07827067 -0.20995498
00000000: 3202 833f 014c 573f 104b 1e3f 143a f93e
00000010: 121b 1b3f e5e4 a6be 94d2 7ebf d266 69bf
00000020: f099 c73e 8f16 773f 2945 233f eefb 9d3e
00000030: 37f7 65bf 96d2 423f 90db 7f3f 5dcd b73e
00000040: 2542 b4be 39b5 07bf 101d 45bf c42a 9ebe
00000050: 1e03 bc3e dfc9 88be 1ec6 803f 88e4 49bf
00000060: 3c03 2b3f 9845 1dbf 1a06 7bbf a4d8 10be
00000070: 9b9a 373f ef24 823f c001 18bf 90aa 493f
00000080: a642 743e 5496 9d3e 9242 533f 33b1 fd3e
00000090: 0996 7a3f b049 483f e4af b13d fda1 2a3f
000000a0: f6b1 3bbf 205d 48bd fdbd 613e 3ee6 32be
000000b0: c8ae 013f 69e1 b6be 5a2d 853f c9e0 ca3e
000000c0: 546a 19bf cc0e f43e ece5 063e 3e73 75bf
000000d0: 8f85 8bbe 73b6 743f e623 613f 2014 3abf
000000e0: 8343 0a3f 5a88 0e3f d89d 0cbd 7c57 61bd
000000f0: e0d1 f43e eae4 4ebf 5f4c a03d 70fe 56be

network.2.weight f4 [128, 64]
0.116011515 -0.04800917 0.11203851 -0.081519924 0.081821255 -0.04479875 0.012272969 0.067113
0.05887024 0.07099303 0.03940277 0.041239474 -0.036292773 0.10829504 0.1148489 0.04543042
0.053046253 -0.04563834 0.12032169 0.08365172 0.07513524 -0.09376235 -0.033705276 -0.097438574
0.05624865 -0.064097784 -0.08001235 -0.02769502 0.054947775 -0.06846643 -0.050714955 0.12261513
-0.007827457 -0.043510363 0.11655046 0.030679233 0.070806615 -0.04754606 0.0450065 0.028494978
-0.15172674 0.007821366 -0.0427552 0.046848886 0.11935283 -0.05010206 0.054932367 0.04792963
-0.000647828 -0.0026958813 -0.15231116 0.02151446 -0.007154215 0.08225523 -0.008421155 -0.12154199
-0.02208537 -0.020822976 0.037293807 0.088023126 0.09976956 -0.16183683 -0.09065386 0.0029984624
0.11406135 0.00547509 0.0504728 -0.011471749 0.16156103 -0.13863584 -0.039351612 -0.06319004
0.114435375 0.039735742 0.08748696 0.057259604 -0.13687702 0.015123556 0.12432919 -0.11599528
-0.16790938 -0.008913612 -0.06684163 -0.13105895 0.07030448 -0.115128435 0.15180472 -0.07260844
0.13128908 -0.14394478 0.06145996 -0.01219162 -0.05099109 -0.033100817 0.04052097 0.14249982
0.012984343 0.044095464 0.035830718 0.03476244 0.08901178 0.12807669 -0.021178842 -0.052402448
0.05105027 0.03437808 -0.090613075 -0.031052854 -0.03096802 0.024822969 0.06020871 0.03676808
-0.053362325 -0.004468885 0.03178574 0.05596739 -0.02055125 0.055742998 0.058795705 0.004340225
-0.11112667 0.07004842 -0.07799991 -0.11418034 0.082551174 -0.059200045 -0.015181011 -0.020147441
0.08015292 -0.004840646 0.09419258 0.009524243 0.13424587 0.07953605 -0.02522339 -0.020781726
-0.067923225 0.06937966 0.022571579 -0.15712747 -0.17081831 -0.03241859 0.069612816 -0.070604965
0.04188174 -0.1909914 0.08719647 0.023592249 0.016473701 -0.12801641 -0.08380014 -0.10943836
0.049048837 -0.03860873 -0.008068308 -0.12116206 -0.052788123 -0.04805535 -0.027372465 0.073240496
-0.07725779 0.042296786 -0.028537622 -0.09514712 -0.009658702 0.0711364 -0.047012523 0.13532002
-0.10948433 -0.090650275 -0.08829164 -0.1334834 0.029314635 -0.057111993 -0.058150854 0.07333775
0.024051666 -0.020354934 0.07056576 0.045424715 -0.17185509 0.07804811 0.023096072 0.03549844
-0.16547796 0.033135533 -0.08214923 0.05988037 0.019278102 -0.08309513 -0.04405975 0.03302599
0.10496274 0.059489325 0.14045323 -0.08879708 -0.06369593 -0.1517099 0.12005499 0.124088675
-0.05537338 0.057040676 0.020397583 0.037231386 -0.059963673 0.094342515 -0.05470006 -0.12430667
-0.08606358 -0.027605087 0.08820234 -0.15661104 0.008723051 -0.09073717 -0.0016190571 -0.0333813
0.14031032 0.04934259 -0.10249257 -0.011571732 -0.07366676 -0.016739205 -0.15173501 -0.1045648
-0.031054532 0.07333055 0.0022243115 -0.12511253 0.13081379 0.06996514 0.0048347022 -0.13367508
-0.037798516 -0.12197991 0.02176883 -0.057787456 -0.13831723 -0.19046341 -0.0022102925 0.10253902
-0.06706929 0.0075372932 0.030220816 0.06644577 -0.11933294 -0.07399928 0.07739449 -0.17671984
0.038103003 0.021296231 -0.14291574 -0.029608585 0.09703592 -0.036922313 0.030277306 -0.13195305
00000000: 7297 ed3d 43a5 44bd 7274 e53d ebf3 a6bd
00000010: e791 a73d e57e 37bd 9014 493c 8a72 893d
00000020: ec21 713d cb64 913d cd64 213d b9ea 283d
00000030: bba7 14bd cac9 dd3d e635 eb3d 4015 3a3d
00000040: 0747 593d 45ef 3abd 386b f63d 9851 ab3d
00000050: 81e0 993d 7a06 c0bd 8b0e 0abd e08d c7bd
00000060: fc64 663d b345 83bd 84dd a3bd abe0 e2bc
00000070: eb10 613d 2138 8cbd 7cba 4fbd a41d fb3d
00000080: bc3e 00bc ec37 32bd 02b2 ee3d 0453 fb3c
00000090: 0f03 913d a8bf 42bd bc58 383d 4d6e e93c
000000a0: 415e 1bbe 3025 003c 1420 2fbd 9ee4 3f3d
000000b0: 426f f43d d137 4dbd c300 613d dc51 443d
000000c0: 00d3 29ba 62ad 30bb 75f7 1bbe 183f b03c
000000d0: e86d eabb 6e75 a83d e2f8 09bc 02eb f8bd
000000e0: 61ec b4bc f294 aabc 64c1 183d 7845 b43d
000000f0: fc53 cc3d 8eb8 25be bba8 b9bd da81 443b
00000100: ff98 e93d 6268 b33b 91bc 4e3d 01f4 3bbc
00000110: 4170 253e 8ef6 0dbe 282f 21bd c869 81bd
00000120: 185d ea3d f2c1 223d 5d2c b33d 0c89 6a3d
00000130: 7d29 0cbe cbc8 773c 4da0 fe3d ef8e edbd
00000140: 70f0 2bbe 660a 12bc 44e4 88bd 5134 06be
00000150: ccfb 8f3d 75c8 ebbd b272 1b3e bcb3 94bd
00000160: a570 063e 4366 13be 70bd 7b3d 5cbf 47bc
00000170: 08dc 50bd b994 07bd 51f9 253d 79eb 113e
00000180: 48bc 543c 729d 343d 3bc3 123d 0f63 0e3d
00000190: cf4b b63d 8926 033e 407f adbc f3a3 56bd
000001a0: 171a 513d 08d0 0c3d 5993 b9bd 8e62 febc
000001b0: a5b0 fdbc 8a59 cb3c 699d 763d 209a 163d
000001c0: 7492 5abd b96f 92bb c431 023d 103e 653d
000001d0: 185b a8bc c552 643d c4d3 703d 7238 8e3b
000001e0: 6196 e3bd 8c75 8f3d 6bbe 9fbd 62d7 e9bd
000001f0: 9710 a93d bf7b 72bd c6b9 78bc 3f0c a5bc
00000200: 3727 a43d 489e 9ebb 0ae8 c03d 920b 1c3c
00000210: c077 093e cce3 a23d 48a1 cebc 703e aabc
00000220: 551b 8bbd ec16 8e3d 08e8 b83c 06e6 20be
00000230: ffea 2ebe 5bc9 04bd 2a91 8e3d 5699 90bd
00000240: 308c 2b3d 4093 43be 1094 b23d 8844 c13c
00000250: dbf3 863c bc16 03be 689f abbd 3821 e0bd
00000260: 6fe7 483d 3024 1ebd f030 04bc d023 f8bd
00000270: 5c38 58bd b0d5 44bd 383c e0bc 1dff 953d
00000280: 5539 9ebd 653f 2d3d bbc7 e9bc 7edc c2bd
00000290: 883f 1ebc f6af 913d 3490 40bd 5591 0a3e
000002a0: 5239 e0bd daa6 b9bd 3fd2 b4bd dfaf 08be
000002b0: 3f25 f03c 44ee 69bd 972f 6ebd 1a32 963d
000002c0: 0008 c53c 64bf a6bc c884 903d 440f 3a3d
000002d0: c8fa 2fbe b0d7 9f3d f933 bd3c d066 113d
000002e0: 0e73 29be 20b9 073d db3d a8bd 1e45 753d
000002f0: 1ced 9d3c c82d aabd ff77 34bd 4346 073d
00000300: b4f6 d63d 14ab 733d f9d2 0f3e 3edb b5bd
00000310: 0373 82bd d759 1bbe 64df f53d 3422 fe3d
00000320: 33cf 62bd 7ca3 693d d518 a73c f07f 183d
00000330: 789c 75bd a636 c13d 2c0d 60bd 7f94 febd
00000340: 1a42 b0bd 1024 e2bc 6ea3 b43d a55e 20be
00000350: 21eb 0e3c 69d4 b9bd 8b36 d4ba d4ba 08bd
00000360: 82ad 0f3e 751b 4a3d a0e7 d1bd 5d97 3dbc
00000370: 99de 96bd a820 89bc 6c60 1bbe 1226 d6bd
00000380: 1366 febc 542e 963d c1c5 113b 801d 00be
00000390: 0df4 053e e249 8f3d 6c6c 9e3b 1fe2 08be
000003a0: 9ed2 1abd 9ad0 f9bd 8c54 b23c 8ab2 6cbd
000003b0: 08a3 0dbe d708 43be 8eda 10bb faff d13d
000003c0: a05b 89bd 66fb f63b a591 f73c b814 883d
000003d0: d464 f4bd ef8c 97bd 0181 9e3d 0cf6 34be
000003e0: e511 1c3d 6f75 ae3c 8158 12be b48d f2bc
000003f0: c5ba c63d da3b 17bd 1d08 f83c b31e 07be

network.2.bias f4 [128]
-0.051184002 -0.07371761 0.03741011 0.07436063 -0.08395916 -0.02988639 -0.10155745 -0.10652445
0.0098397015 0.03308785 0.07141577 -0.09395399 -0.09010048 0.09961513 0.14338043 -0.022565309
0.010136168 -0.033098493 0.12966694 0.119438514 -0.05311264 0.06489918 0.116134904 -0.08869015
0.112858504 -0.019534387 0.062317282 -0.09470108 0.011540696 0.11957292 0.10800026 -0.052311208
0.07101883 -0.05036298 0.053209454 -0.029883405 -0.07667656 0.035284996 -0.06961912 -0.049655247
-0.08639233 -0.0055422634 0.04797992 0.14038296 0.15791787 0.06294048 0.04904093 0.07217817
0.11843997 0.113748685 0.100453965 0.09846549 0.10188806 0.077872485 0.095461115 -0.08284348
-0.024379788 -0.04556308 -0.0391998 -0.03782194 -0.120837614 0.14031054 0.022785904 -0.09159361
-0.021044526 -0.07115528 0.09164497 -0.10977888 0.052326664 -0.04807698 -0.12094851 -0.030880852
0.012487948 -0.1343015 0.03532888 -0.030653736 0.009821452 -0.07190348 0.036647364 0.117278315
-0.038807735 -0.07963894 -0.07210663 0.084988385 0.08246639 -0.032968838 0.10134609 0.11932907
-0.09581727 0.04279697 -0.017202392 0.11563993 0.032963023 0.120876126 0.08475294 0.109330125
-0.03933355 -0.030567693 0.053649355 -0.050992746 -0.009666488 0.108988404 0.080202416 0.00988452
-0.084223524 0.009158341 -0.027283516 0.07821339 0.05935633 -0.054021537 -0.094384976 -0.0897968
-0.038441017 0.007953636 -0.06965276 0.1293338 0.03451474 0.0027553074 0.15873897 -0.105613485
-0.07275678 -0.081943974 -0.035960957 0.1324186 -0.08495997 -0.013314032 0.075420424 0.08898726
00000000: 51a6 51bd 42f9 96bd 583b 193d 634a 983d
00000010: c8f2 abbd 4dd4 f4bc 5afd cfbd 7e29 dabd
00000020: b336 213c 2087 073d 6e42 923d f36a c0bd
00000030: 9a86 b8bd 0403 cc3d 52d2 123e e2da b8bc
00000040: 2c12 263c 4992 07bd 69c7 043e 2e9c f43d
00000050: a48c 59bd dce9 843d 23d8 ed3d 2ea3 b5bd
00000060: 5c22 e73d 9406 a0bc 6840 7f3d a4f2 c1bd
00000070: 3015 3d3c a6e2 f43d 3e2f dd3d 4744 56bd
00000080: 5272 913d 6a49 4ebd 28f2 593d 0bce f4bc
00000090: 9a08 9dbd 0087 103d 7894 8ebd 4d63 4bbd
000000a0: 76ee b0bd e09b b5bb 9886 443d 8dc0 0f3e
000000b0: 39b5 213e f0e6 803d 24df 483d 26d2 933d
000000c0: a890 f23d 12f5 e83d cfba cd3d 46a8 c93d
000000d0: b0aa d03d 9c7b 9f3d 1e81 c33d d8a9 a9bd
000000e0: 1fb8 c7bc 5aa0 3abd f88f 20bd 2eeb 1abd
000000f0: b679 f7bd 91ad 0f3e 81a9 ba3c 6e95 bbbd
00000100: 9265 acbc dcb9 91bd 5cb0 bb3d c0d3 e0bd
00000110: 7c54 563d 5eec 44bd dab3 f7bd d7f9 fcbc
00000120: 409a 4c3c 5586 09be 04b5 103d 8b1d fbbc
00000130: 28ea 203c 2242 93bd 8c1b 163d 9d2f f03d
00000140: dcf4 1ebd be19 a3bd a4ac 93bd 640e ae3d
00000150: 24e4 a83d 550a 07bd 8a8e cf3d cd62 f43d
00000160: d83b c4bd e04b 2f3d 08ec 8cbc a1d4 ec3d
00000170: 3c04 073d e78d f73d f392 ad3d 79e8 df3d
00000180: 371c 21bd 1969 fabc 6dbf 5b3d c5dd 50bd
00000190: 3060 1ebc 5035 df3d 2a41 a43d aff2 213c
000001a0: 627d acbd de0c 163c ae81 dfbc 582e a03d
000001b0: a01f 733d b045 5dbd e94c c1bd 62e7 b7bd
000001c0: 5474 1dbd f84f 023c 1ba6 8ebd 1470 043e
000001d0: 545f 0d3d 6392 343b 788c 223e e24b d8bd
000001e0: 8201 95bd 3ed2 a7bd cc4b 13bd be98 073e
000001f0: 7eff adbd 1923 5abc 0676 9a3d f43e b63d

network.4.weight f4 [64, 128]
-0.0064901737 0.030119048 -0.08306283 -0.04684747 -0.023125462 0.018542103 -0.08274467 0.080680706
-0.0005046576 -0.0084237745 -0.050991584 0.024112865 -0.018957801 -0.057212997 -0.033078052 0.0018740365
0.067562036 -0.011365801 0.014181807 -0.06437344 -0.059095845 0.013217501 -0.0024422917 -0.09131129
-0.039945643 0.044718333 0.048991255 -0.047755696 0.013495326 0.012325488 0.034159075 0.004589609
-0.011172347 -0.022268653 0.062449537 -0.04005403 -0.05697831 -0.017247282 0.014525632 0.048193656
-0.02019763 0.05014258 0.0062637404 -0.088499054 0.015714347 0.06150896 0.04580363 0.023728654
0.010485545 0.03088779 0.07310037 0.06979967 -0.03815254 0.023398256 -0.02053918 -0.04246772
0.037841454 0.06396813 0.0785852 -0.0734279 -0.062979504 0.025693975 0.079494946 0.06360791
0.004453359 -0.012086503 -0.019713797 0.0010324642 0.038159303 0.05571718 -0.023113392 -0.005221101
0.06282336 -0.043771114 0.02609013 0.0031421075 -0.037540402 0.08272684 -0.074296996 -0.0041039847
-0.04089437 -0.019879516 0.016468048 -0.08514627 0.071645744 0.055695817 -0.052192904 -0.010838481
-0.047859326 0.006390251 -0.057483487 -0.092908 0.0011587963 -0.078791186 0.07392474 0.026801703
0.08120298 -0.036592536 -0.091207184 -0.018426009 0.07233306 0.031912655 -0.060966138 -0.085427396
0.0046249703 0.062366176 0.021646999 -0.068629496 0.034871362 0.06486692 0.08176524 -0.027153548
-0.06430987 -0.072233275 -0.0018367337 0.042929847 -0.011661507 -0.04169012 0.020378033 0.010865353
-0.074503124 0.013557608 0.032795824 0.07346564 -0.021359544 -0.058375448 -0.0028115734 -0.077903435
0.019535653 -0.00698293 -0.019589432 0.08682484 -0.06952163 0.05299113 0.028936192 0.030073464
0.029706687 0.0706713 -0.06508744 -0.046611704 0.062220193 -0.03689926 0.0024737641 -0.0056935623
0.037324198 -0.008994907 0.056362204 0.08140821 -0.0037466884 -0.08575492 -0.004398972 0.013372496
0.0092469305 0.012086295 -0.029667988 0.08426305 0.026429296 -0.02466327 -0.039174717 -0.07619793
0.0621989 -0.03794954 0.024920933 -0.04870789 -0.006840937 0.036785193 0.023837604 0.030295037
-0.021053277 0.03644693 -0.05738618 0.011015698 -0.046024285 0.06301703 0.046326153 -0.08232571
-0.010214955 -0.075111486 0.08470077 0.068061955 0.08522994 -0.042120505 0.022584438 -0.052701652
-0.01021193 0.016086228 -0.007040739 0.029570557 -0.009866364 -0.05388697 0.009312123 -0.025784664
-0.007649444 -0.03495764 0.043198995 0.057979576 -0.006865144 -0.03991393 -0.018317312 0.0453623
-0.065160714 -0.035762 -0.07558528 0.0488139 -0.04068731 -0.0037107766 -0.07264886 -0.020303883
0.03192786 0.07413403 -0.013135262 -0.065180965 -0.06518826 -0.021023542 0.036550798 -0.06278987
-0.030231081 0.07536798 0.04936505 0.042392306 0.015456021 -0.08294195 -0.050108735 -0.038134016
-0.038013473 -0.02091141 -0.06829945 0.06257477 0.03147164 -0.005733341 -0.045456577 0.007019818
-0.01802764 -0.07691114 0.058530353 0.035031922 0.054400213 -0.035756923 -0.06291895 -0.068527065
0.08495984 0.056716926 -0.041121878 -0.0076365024 -0.07136835 0.029848874 0.0058130175 0.05869458
-0.08286525 0.06089721 0.08491228 0.042315967 -0.01664786 0.08139246 0.009037077 0.050830208
00000000: 86ab d4bb 39bc f63c d81c aabd 22e3 3fbd
00000010: 9c71 bdbc 9ce5 973c 0a76 a9bd ed3b a53d
00000020: 004b 04ba df03 0abc 8ddc 50bd 5888 c53c
00000030: 644d 9bbc 2d58 6abd da7c 07bd 3ba2 f53a
00000040: f75d 8a3d a037 3abc cf5a 683c 39d6 83bd
00000050: 7c0e 72bd 388e 583c db0e 20bb 6a01 bbbd
00000060: 0b9e 23bd 922a 373d 0eab 483d 7a9b 43bd
00000070: 801b 5d3c d8f0 493c 63ea 0b3d 6e64 963b
00000080: 380c 37bc c06c b6bc 16cb 7f3d b20f 24bd
00000090: 1762 69bd 2c4a 8dbc ebfc 6d3c b666 453d
000000a0: 8075 a5bc 4e62 4d3d 1040 cd3b fe3e b5bd
000000b0: 60bb 803c d2f0 7b3d 969c 3b3d 9862 c23c
000000c0: 90cb 2b3c 6408 fd3c a6b5 953d 21f3 8e3d
000000d0: d645 1cbd b3ad bf3c c841 a8bc a2f2 2dbd
000000e0: a4ff 1a3d b901 833d 47f1 a03d 5e61 96bd
000000f0: 66fb 80bd 2c7c d23c 3fce a23d dd44 823d
00000100: 7ced 913b 7806 46bc d47e a1bc c053 873a
00000110: ee4c 1c3d b337 643d 4c58 bdbc c515 abbb
00000120: 89a9 803d 5749 33bd f8ba d53c d1eb 4d3b
00000130: f7c3 19bd b16c a93d 0629 98bd b87a 86bb
00000140: db80 27bd 5eda a2bc 00e8 863c 2b61 aebd
00000150: 01bb 923d 4c21 643d 3ac8 55bd e293 31bc
00000160: 2408 44bd 5065 d13b ce73 6bbd 8d46 bebd
00000170: c0e2 973a 465d a1bd db65 973d 3f8f db3c
00000180: bf4d a63d 0ee2 15bd d5ca babd 24f2 96bc
00000190: 5b23 943d d8b6 023d a1b7 79bd 8ff4 aebd
000001a0: 108d 973b ad73 7f3d 0c55 b13c 9f8d 8cbd
000001b0: 46d5 0e3d f3d8 843d 8974 a73d 1e71 debc
000001c0: e5b4 83bd 0aef 93bd 8ebe f0ba 35d7 2f3d
000001d0: e80f 3fbc 42c3 2abd d5ef a63c 9804 323c
000001e0: 1895 98bd bb20 5e3c ea54 063d 2775 963d
000001f0: 36fa aebc 181b 6fbd 6042 38bb d68b 9fbd
00000200: 3c09 a03c 10d1 e4bb 047a a0bc 39d1 b13d
00000210: 5b61 8ebd 3a0d 593d 980b ed3c a05c f63c
00000220: 705b f33c 1dbc 903d 904c 85bd eaeb 3ebd
00000230: 9ada 7e3d ae23 17bd e01e 223b 1091 babb
00000240: 42e1 183d 605f 13bc 0edc 663d 59b9 a63d
00000250: 008b 75bb 47a0 afbd 4025 90bb 5018 5b3c
00000260: 7080 173c 9805 463c 480a f3bc 1b92 ac3d
00000270: 4082 d83c a00a cabc ab75 20bd a90d 9cbd
00000280: 46c4 7e3d fa70 1bbd fc26 cc3c ed81 47bd
00000290: f029 e0bb 12ac 163d 1447 c33c 4c2d f83c
000002a0: ec77 acbc 6049 153d c50d 6bbd 307b 343c
000002b0: f683 3cbd 130f 813d 7ec0 3d3d 629a a8bd
000002c0: a05c 27bc 0dd4 99bd 9977 ad3d 1164 8b3d
000002d0: 098d ae3d 8d86 2cbd 0003 b93c b0dd 57bd
000002e0: f04f 27bc 44c7 833c 00b6 e6bb f43d f23c
000002f0: 88a6 21bc 95b8 5cbd e091 183c 5c3a d3bc
00000300: 30a8 fabb be2f 0fbd 6ef1 303d fe7b 6d3d
00000310: 00f5 e0bb ca7c 23bd 300e 96bc d2cd 393d
00000320: fb72 85bd 2d7b 12bd 75cc 9abd 16f1 473d
00000330: bda7 26bd 8030 73bb edc8 94bd 5454 a6bc
00000340: cac6 023d 95d3 973d 4835 57bc 997d 85bd
00000350: 6c81 85bd 9039 acbc 4ab6 153d fa97 80bd
00000360: 2ca7 f7bc 875a 9a3d 0233 4a3d 8ea3 2d3d
00000370: 403b 7d3c 78dd a9bd d13e 4dbd 6a32 1cbd
00000380: 04b4 1bbd 684e abbc 95e0 8bbd 3327 803d
00000390: 68e8 003d c0de bbbb ad30 3abd 8006 e63b
000003a0: b4ae 93bc 9683 9dbd 86bd 6f3d a27d 0f3d
000003b0: c2d2 5e3d da75 12bd a7db 80bd eb57 8cbd
000003c0: 6dff ad3d 0250 683d 6a6f 28bd a03b fabb
000003d0: 9229 92bd a085 f43c 207b be3b ba69 703d
000003e0: 42b5 a9bd 5a6f 793d 7de6 ad3d 8253 2d3d
000003f0: 1861 88bc 17b1 a63d 4010 143c 5633 503d

network.4.bias f4 [64]
-0.029546537 -0.04801644 0.0024750344 0.056168474 0.019880624 -0.06809214 0.08316499 0.01007726
-0.044035155 0.008667259 -0.013445728 0.02763752 -0.05798872 -0.080470525 0.060208477 -0.031178564
-0.02519832 -0.0071449056 0.11869169 -0.08201078 -0.07670835 0.04827068 -0.047401153 -0.034497056
-0.028616013 0.12045506 0.05166813 -0.054265503 -0.05110355 -0.07287883 0.037696682 0.038845953
-0.0768402 -0.03727562 -0.010328571 0.0469398 -0.08114925 -0.034129377 -0.080545016 0.02661089
0.054760814 -0.055005938 -0.00027612946 0.0149154365 -0.053471558 0.012228529 -0.023670534 0.038833063
-0.03734917 0.07642238 -0.00609987 0.055675916 0.054000918 -0.021394446 -0.008734265 -0.07129651
-0.06267697 0.08303796 0.014474899 0.017709408 0.11249828 -0.03848212 0.043323338 -0.0068318546
00000000: 940b f2bc e3ac 44bd 3034 223b ea10 663d
00000010: b1dc a23c e473 8bbd 6852 aa3d 181b 253c
00000020: 355e 34bd 1e01 0e3c 794b 5cbc 1568 e23c
00000030: 9485 6dbd bbcd a4bd 2a9d 763d 306a ffbc
00000040: b56c cebc d01f eabb a114 f33d 45f5 a7bd
00000050: 4419 9dbd 7ab7 453d b627 42bd c94c 0dbd
00000060: 216c eabc 24b1 f63d f6a1 533d 8145 5ebd
00000070: f551 51bd 7f41 95bd d667 1a3d ef1c 1f3d
00000080: 655e 9dbd 52ae 18bd 2b39 29bc f343 403d
00000090: 9431 a6bd 3fcb 0bbd c9f4 a4bd 15ff d93c
000000a0: e04c 603d e84d 61bd 78c5 90b9 e05f 743c
000000b0: fe04 5bbd 2b5a 483c b5e8 c1bc 6b0f 1f3d
000000c0: 71fb 18bd 5683 9c3d 6be1 c7bb 6e0c 643d
000000d0: 1130 5d3d 6843 afbc 2a1a 0fbc e803 92bd
000000e0: c95c 80bd ce0f aa3d 2028 6d3c 5213 913c
000000f0: 8065 e63d 6d9f 1dbd d073 313d c0dd dfbb

network.6.weight f4 [48, 64]
0.0343026 -0.08955476 0.11190798 0.12259494 0.042084314 0.03888683 0.04129351 0.05009829
-0.057624727 -0.05572051 0.052323807 -0.01476614 -0.06854986 0.03149752 0.033134136 -0.05421128
-0.11261318 -0.043191195 0.060772166 0.061918467 -0.07629669 0.1270547 -0.121122345 0.07653433
-0.10982683 0.0710073 -0.06305937 -0.09106632 0.037705753 0.017658874 -0.05101435 -0.061962157
-0.022659553 0.06169489 -0.03065583 -0.11515227 -0.07573963 -0.017988134 -0.08807397 0.05133587
-0.024019208 0.03301529 0.05677466 -0.050710514 0.10972293 0.078273 -0.003868525 -0.092683345
0.110006794 -0.14376844 -0.13518067 -0.031603456 -0.027580932 -0.07639629 -0.0122762425 -0.008349599
-0.025745472 -0.068587855 0.01563204 -0.10790077 -0.07213389 0.06250654 0.11877588 0.0057726502
-0.029748542 0.09340979 0.014235252 -0.046793118 -0.0442673 -0.078021735 0.0813564 -0.022141065
0.08581511 0.09819815 0.032548998 0.011530829 0.10078342 0.0021996263 0.0062925946 0.093182504
-0.051147476 -0.00073207915 -0.065041445 -0.059043378 -0.055678412 0.084345706 0.14861776 -0.078531325
-0.069131576 -0.007239642 -0.023745429 -0.13523094 -0.03703082 -0.01653023 0.07962154 0.08985593
0.1275942 0.02388406 0.03567254 -0.018841332 -0.01935058 0.051410988 -0.032617666 0.12088496
-0.054812975 0.065511815 -0.056954745 0.019551232 -0.08245522 -0.042649217 0.07822663 0.0068404395
0.0293542 -0.0677096 -0.08970709 -0.09823642 0.0016601888 0.001220702 0.008047478 -0.02521226
0.024149338 -0.085744664 0.07786431 -0.08817525 -0.082251325 0.032421548 -0.018140933 0.048170626
0.06437964 0.052551404 0.08577317 -0.101045996 0.020206532 0.08699339 0.0630062 -0.026802232
0.046063043 -0.08114273 0.072230265 0.060024876 0.039188027 -0.08393153 0.05364981 0.10938753
-0.058775023 0.0443383 -0.12116122 -0.070771426 0.029039621 0.061698165 0.10426683 -0.108698696
0.041815653 0.03080863 -0.096672766 0.04672084 -0.08008391 0.028583378 0.0032452454 0.0046599247
0.008673056 -0.027644679 0.03243916 -0.014531509 -0.07218921 -0.014484885 0.033309314 -0.028503556
-0.041614372 -0.12664935 0.0372446 0.037002087 -0.028841157 0.07848217 -0.015693545 -0.040236704
-0.12258157 -0.022334287 0.054149766 -0.019041466 0.023573278 0.008517965 0.07973278 0.0006275633
-0.019446028 -0.06933084 -0.11669658 0.032410726 -0.046651434 0.019397464 0.10007475 0.0049656183
-0.012816742 0.021472424 -0.030880565 -0.0006557703 -0.062066786 0.031850528 -0.07753229 -0.003841079
-0.0905475 0.05041671 -0.06631197 -0.014512761 -0.068268165 -0.01658198 -0.048068646 0.015733171
0.012804944 0.032948732 -0.0033019749 -0.050330997 -0.10505025 0.005351835 -0.00795781 -0.11850493
-0.06723704 0.03717151 -0.069785506 -0.1299654 -0.04325023 0.0802875 0.09119293 0.048119426
0.0068663377 0.045771617 -0.104602344 0.12709378 -0.11444117 -0.088323146 -0.11960329 0.12998965
-0.1245061 0.044057034 -0.05795334 -0.08238658 -0.12566456 -0.027105289 -0.08478158 0.0023384544
0.11689174 -0.007449396 0.11597725 0.08487989 -0.0157856 0.10865071 0.022336362 -0.07424415
-0.09686725 0.07912011 0.0476037 0.007940894 -0.08884667 -0.079352796 0.02486621 -0.040368795
00000000: e280 0c3d 7c68 b7bd 0330 e53d 0e13 fb3d
00000010: 9a60 2c3d cc47 1f3d 6223 293d dd33 4d3d
00000020: e807 6cbd 313b 64bd 7d51 563d aeed 71bc
00000030: de63 8cbd 8b03 013d a9b7 073d a60c 5ebd
00000040: bda1 e6bd 40e9 30bd 3cec 783d 389e 7d3d
00000050: 7041 9cbd a11a 023e fe0e f8bd 08be 9c3d
00000060: e4ec e0bd 466c 913d 4525 81bd fb80 babd
00000070: 5971 1a3d 58a9 903c 6cf4 50bd 08cc 7dbd
00000080: 87a0 b9bc c8b3 7c3d ef21 fbbc f4d4 ebbd
00000090: 611d 9bbd da5b 93bc 2060 b4bd 9045 523d
000000a0: eec3 c4bc 0a3b 073d 8c8c 683d d4b5 4fbd
000000b0: 6ab6 e03d 984d a03d 1487 7dbb c4d0 bdbd
000000c0: 3e4b e13d 0938 13be cd6c 0abe a072 01bd
000000d0: 68f1 e1bc a875 9cbd 4b22 49bc c2cc 08bc
000000e0: 2be8 d2bc ca77 8cbd c40e 803c 14fb dcbd
000000f0: efba 93bd 6e03 803d c540 f33d 8028 bd3b
00000100: 37b3 f3bc a24d bf3d f93a 693c 24aa 3fbd
00000110: a151 35bd dcc9 9fbd 2f9e a63d 2e61 b5bc
00000120: d5bf af3d 1d1c c93d 1952 053d cdeb 3c3c
00000130: 8a67 ce3d 9b27 103b 1c32 ce3b 78d6 be3d
00000140: 0480 51bd 00e9 3fba 7334 85bd 78d7 71bd
00000150: 0c0f 64bd 71bd ac3d 412f 183e 08d5 a0bd
00000160: db94 8dbd 853a edbb c685 c2bc fb79 0abe
00000170: a1ad 17bd 686a 87bc 9e10 a33d 6306 b83d
00000180: 0ea8 023e 81a8 c33c 5f1d 123d 2359 9abc
00000190: 1c85 9ebc 5494 523d 1a9a 05bd 8992 f73d
000001a0: 9283 60bd 0f2b 863d 6149 69bd e829 a03c
000001b0: 48de a8bd f2b0 2ebd 4935 a03d c425 e03b
000001c0: 3878 f03c 55ab 8abd 5ab8 b7bd 2d30 c9bd
000001d0: b19a d93a f6ff 9f3a 92d9 033c f189 cebc
000001e0: d5d4 c53c e69a afbd 5377 9f3d 3a95 b4bd
000001f0: 6273 a8bd 75cc 043d 4b9c 94bc 904e 453d
00000200: 79d9 833d 2440 573d d8a9 af3d 34f1 cebd
00000210: 2b88 a53c 9729 b23d 6509 813d 5b90 dbbc
00000220: 9aac 3c3d 292e a6bd 76ed 933d a5dc 753d
00000230: a083 203d 4be4 abbd e7bf 5b3d 9206 e03d
00000240: 14be 70bd 149c 353d 6023 f8bd 9cf0 90bd
00000250: 80e4 ed3c 37b7 7c3d d989 d53d 6c9d debd
00000260: e446 2b3d 6162 fc3c 5ffc c5bd 5a5e 3f3d
00000270: 0803 a4bd b027 ea3c 2fae 543b 48b2 983b
00000280: 6f19 0e3c 1877 e2bc edde 043d 9115 6ebc
00000290: f0d7 93bd 0352 6dbc 596f 083d 4a80 e9bc
000002a0: d573 2abd 5eb0 01be cb8d 183d 808f 173d
000002b0: 4a44 ecbc 43bb a03d c08f 80bc 3ecf 24bd
000002c0: 0c0c fbbd 65f6 b6bc 25cc 5d3d d9fc 9bbc
000002d0: bf1c c13c ef8e 0b3c f14a a33d 0f83 243a
000002e0: 474d 9fbc 54fd 8dbd 9efe eebd 1cc1 043d
000002f0: 9315 3fbd 6ee7 9e3c fef3 cc3d a0b6 a23b
00000300: 50fd 51bc f0e6 af3c 3df9 fcbc 00e8 2bba
00000310: be39 7ebd b375 023d 40c9 9ebd 9dba 7bbb
00000320: f870 b9bd c181 4e3d 92ce 87bd eec6 6dbc
00000330: 2ed0 8bbd efd6 87bc a1e3 44bd dae2 803c
00000340: d4cb 513c 40f5 063d f265 58bb e027 4ebd
00000350: 9624 d7bd 725e af3b 7961 02bc b6b2 f2bd
00000360: 93b3 89bd 2741 183d b4eb 8ebd a615 05be
00000370: 2727 31bd c66d a43d 5cc3 ba3d e018 453d
00000380: 04ff e03b 057b 3b3d c139 d6bd df24 023e
00000390: 2260 eabd c4e2 b4bd 92f2 f4bd 021c 053e
000003a0: 0efd febd 2675 343d 7b60 6dbd 4cba a8bd
000003b0: 36ae 00be e90b debc f7a1 adbd c140 193b
000003c0: f064 ef3d 101a f4bb 7b85 ed3d 82d5 ad3d
000003d0: cd50 81bc 4384 de3d bffa b63c 510d 98bd
000003e0: 5662 c6bd b909 a23d 19fc 423d 861a 023c
000003f0: 3ef5 b5bd b883 a2bd 39b4 cb3c c059 25bd

network.6.bias f4 [48]
-0.04498741 -0.067770615 0.012651094 0.06944243 0.036193207 -0.06273427 -0.0667277 -0.071404904
0.060800266 0.10585948 0.0863532 -0.027641576 0.08347656 -0.02509524 0.007973297 0.0987177
0.076081514 -0.09022743 0.13418964 0.020730468 -0.11250913 -0.009162192 0.047380704 -0.053154618
0.07516058 -0.12624602 -0.08513827 -0.09834708 0.0050278464 0.04832582 -0.042800665 -0.03564266
0.076290146 0.087180056 0.07057209 -0.108781815 0.026176672 0.048847176 0.10898553 0.00922514
0.053331513 0.05137849 0.1640512 0.07871284 -0.07586056 -0.0022923353 -0.045679234 0.086730465
00000000: b844 38bd 52cb 8abd 8946 4f3c d537 8e3d
00000010: 543f 143d d37a 80bd 88a8 88bd bc3c 92bd
00000020: b309 793d dbcc d83d f2d9 b03d 9670 e2bc
00000030: c2f5 aa3d 8894 cdbc 6ea2 023c 812c ca3d
00000040: a0d0 9b3d 29c9 b8bd 0269 093e f1d2 a93c
00000050: 306b e6bd 051d 16bc 4512 423d a8b8 59bd
00000060: caed 993d a346 01be f95c aebd 326a c9bd
00000070: a2c0 a43b 4cf1 453d c04f 2fbd 0afe 11bd
00000080: 023e 9c3d 758b b23d 1a88 903d 00c9 debd
00000090: 7670 d63c fa13 483d ce33 df3d 0b25 173c
000000a0: 2572 5a3d 4072 523d 0afd 273e 3334 a13d
000000b0: c85c 9bbd 013b 16bb 261a 3bbd be9f b13d
